Model: "sequential"
+--------------------------------------------------------------------------+
| Layer (type)                    | Output Shape           |       Param # |
|---------------------------------+------------------------+---------------|
| conv2d (Conv2D)                 | (None, 17, 1024, 32)   |           704 |
|---------------------------------+------------------------+---------------|
| batch_normalization             | (None, 17, 1024, 32)   |           128 |
| (BatchNormalization)            |                        |               |
|---------------------------------+------------------------+---------------|
| max_pooling2d (MaxPooling2D)    | (None, 8, 512, 32)     |             0 |
|---------------------------------+------------------------+---------------|
| conv2d_1 (Conv2D)               | (None, 8, 512, 64)     |        30,784 |
|---------------------------------+------------------------+---------------|
| batch_normalization_1           | (None, 8, 512, 64)     |           256 |
| (BatchNormalization)            |                        |               |
|---------------------------------+------------------------+---------------|
| max_pooling2d_1 (MaxPooling2D)  | (None, 4, 256, 64)     |             0 |
|---------------------------------+------------------------+---------------|
| conv2d_2 (Conv2D)               | (None, 4, 256, 128)    |        73,856 |
|---------------------------------+------------------------+---------------|
| batch_normalization_2           | (None, 4, 256, 128)    |           512 |
| (BatchNormalization)            |                        |               |
|---------------------------------+------------------------+---------------|
| max_pooling2d_2 (MaxPooling2D)  | (None, 2, 128, 128)    |             0 |
|---------------------------------+------------------------+---------------|
| conv2d_3 (Conv2D)               | (None, 2, 128, 256)    |       295,168 |
|---------------------------------+------------------------+---------------|
| batch_normalization_3           | (None, 2, 128, 256)    |         1,024 |
| (BatchNormalization)            |                        |               |
|---------------------------------+------------------------+---------------|
| max_pooling2d_3 (MaxPooling2D)  | (None, 1, 64, 256)     |             0 |
|---------------------------------+------------------------+---------------|
| flatten (Flatten)               | (None, 16384)          |             0 |
|---------------------------------+------------------------+---------------|
| dense (Dense)                   | (None, 256)            |     4,194,560 |
|---------------------------------+------------------------+---------------|
| dropout (Dropout)               | (None, 256)            |             0 |
|---------------------------------+------------------------+---------------|
| dense_1 (Dense)                 | (None, 9)              |         2,313 |
+--------------------------------------------------------------------------+
 Total params: 13,795,997 (52.63 MB)
 Trainable params: 4,598,345 (17.54 MB)
 Non-trainable params: 960 (3.75 KB)
 Optimizer params: 9,196,692 (35.08 MB)

